model/LastModel.pth (torch, 4764 bytes, 6 tensors)

linear1.weight f4 [20, 3]
0.2870438 -0.94246554 -0.31044176 -0.4456882 -0.79871786 0.45661288 -0.4428234 0.5205833
0.22457935 0.8518279 -0.600436 0.50184315 0.87304574 -0.66868365 0.2212152 -0.7383217
0.49070865 0.28561231 0.809399 -0.068293504 -0.86949885 0.9107437 0.015465035 0.18895224
-0.45752168 -0.2247962 -0.97529703 -0.10345082 -0.8833693 0.044732712 -0.76830494 -0.44435754
-0.98569137 0.6124773 -0.119196355 0.6073618 -0.97025836 -0.19576944 -0.74465287 -0.17256911
-0.19354272 0.4733123 0.35231847 -0.45227212 0.24101177 -0.1603668 -1.003482 -0.0067851683
-0.53975374 -0.96288115 -0.16211666 0.94073874 0.427578 0.6489651 0.8689263 -0.34047788
0.30093786 -0.5819477 -0.54999006 0.018692024
00000000: 68f7 923e 6c45 71bf 39f2 9ebe 3e31 e4be
00000010: c678 4cbf 2ac9 e93e c0b9 e2be f244 053f
00000020: 21f8 653e 6511 5a3f 2cb6 19bf cb78 003f
00000030: ed7f 5f3f da2e 2bbf 3d86 623e a702 3dbf
00000040: 2a3e fb3e c73b 923e c634 4f3f 77dd 8bbd
00000050: 7a97 5ebf 8026 693f 0f61 7d3c b27c 413e
00000060: 4840 eabe fa30 66be 11ad 79bf 06de d3bd
00000070: 7e24 62bf a639 373d a2af 44bf d582 e3be
00000080: 4556 7cbf 50cb 1c3f 381d f4bd 107c 1b3f
00000090: da62 78bf c977 48be 92a1 3ebf f5b5 30be
000000a0: 1030 46be fd55 f23e 1663 b43e 3690 e7be
000000b0: cacb 763e 3237 24be 1972 80bf 1e56 debb
000000c0: 4d2d 0abf 617f 76bf e901 26be 41d4 703f
000000d0: 81eb da3e 9422 263f f471 5e3f 1e53 aebe
000000e0: 8714 9a3e 86fa 14bf 26cc 0cbf 0420 993c

linear1.bias f4 [20]
-0.13725366 -0.95234275 -0.47094783 -0.48426807 0.6841194 0.89980876 -0.23330086 -0.28372908
0.3028067 -0.39652133 0.48564044 -0.06474315 0.9751948 -0.8469679 -0.9460674 -0.82661074
0.9684534 -0.03174872 -0.27401105 -0.7644785
00000000: 398c 0cbe bccc 73bf 1320 f1be fcf1 f7be
00000010: 7322 2f3f de59 663f 6ce6 6ebe f044 91be
00000020: 7b09 9b3e d804 cbbe dda5 f83e 0e98 84bd
00000030: 5ea6 793f e3d2 58bf 7931 72bf c39c 53bf
00000040: 90ec 773f f20a 02bd 2d4b 8cbe ddb4 43bf

linear2.weight f4 [20, 20]
0.19845794 0.5475297 0.9532959 -0.8197929 -0.5161694 0.54308134 0.05186796 0.5408322
-0.7077212 0.9848481 -0.9336619 -0.9166635 -0.35532656 -0.11936945 0.5705842 0.8955675
0.43272722 0.7100079 0.7461519 -0.56495917 -0.5346659 -0.3556543 0.28803435 -0.37838256
-0.267419 -0.8685108 0.41046628 0.5558702 -0.49072933 0.49638888 0.9028266 -0.20641495
0.062474098 0.5279861 0.09746807 -0.26194966 -0.5496597 0.1370112 0.28230277 0.017291976
0.97834915 0.7856669 0.96605664 -0.2395479 -0.68426716 -0.61650324 -0.4651905 0.8676642
0.907433 0.7915515 -0.2761717 -0.4818674 -0.5202867 -0.095361516 0.35193264 -0.19696546
0.13792203 -0.0656031 0.29537725 0.12500933 0.8933325 -0.34135213 -0.99042153 -0.68815225
0.54696983 0.7902051 -0.36097094 -0.8137519 -0.34243274 -0.6906974 0.5728013 0.6453907
0.13367914 -0.61896354 -0.14855126 0.6903824 0.86209565 -0.42914376 0.6476752 0.7281895
0.85357416 0.35436732 0.5223388 0.2721991 0.55190814 -0.4691295 -0.8985176 0.29945964
-0.74810773 -0.4179612 -0.6886668 -0.56472594 -0.3717944 0.4591147 -0.97190595 -0.087460876
-0.5336369 -0.5475239 -0.2014459 0.10459742 0.3637635 0.8937802 -0.049292617 0.6395916
-0.47084343 0.4727586 0.94886017 0.08117992 -0.5570111 -0.6532119 0.56115043 -0.7331398
0.5727016 0.45235062 0.3951669 -0.54816425 0.29051238 0.27727717 0.6253162 0.4285233
-0.3683563 -0.43142843 -0.3190147 -0.79874325 -0.31201565 0.7388273 -0.10610305 0.21568044
-0.46663207 0.93493503 -0.3494162 -0.6389931 0.00026309484 -0.92263603 0.9652399 0.07233216
-0.37316972 0.10465859 -0.38353938 -0.26151952 0.5343805 0.44692576 0.27100843 -0.48215562
-0.24199566 0.09191475 -0.075008884 -0.66958356 -0.22804569 0.6165912 0.002861657 -0.8219478
-0.34386492 -0.47350767 0.9059449 0.43553445 -0.3634215 -0.13941841 0.59186655 0.8346215
-0.007635466 0.48179305 0.40765196 -0.29418132 -0.30071092 -0.8842689 0.37978095 -0.45094424
0.026200777 -0.21095544 0.6169287 0.04886626 0.81301117 -0.74791074 0.9144452 -0.7145847
-0.6717385 -0.33335343 -0.024324385 0.19936602 -0.3357306 0.9900675 -0.88534397 0.9911226
0.39778984 0.31893516 -0.26262376 0.41303036 -0.5059101 0.091641545 -0.009492721 0.91667557
0.45199853 -0.42810217 -0.1370958 -0.62514424 0.46648407 0.2704657 0.28225353 0.1172884
-0.46798202 -0.2849332 0.35268408 -0.9757375 0.14913994 -0.7630952 0.41064554 -0.35816664
0.6532523 0.9604532 -0.48696774 0.3915598 -0.3512605 0.022661336 -0.06716105 -0.2511002
-0.83447665 -0.75017565 -0.06528833 -0.5392468 0.37895316 0.8329392 -0.77225953 -0.96152586
0.073053315 -0.70633096 -0.60185486 0.21996273 -0.72475415 -0.50209147 -0.7731058 -0.08423288
-0.95887035 0.35790607 0.2914878 0.9028956 -0.16875954 0.73451084 0.25959522 0.28909338
0.2856476 0.019961387 0.37599444 -0.29931208 0.7015206 -0.6943609 -0.7811001 0.68370044
0.9174363 -0.3544284 0.4958154 0.8944801 -0.55515283 -0.36327186 0.8941129 -0.83873606
00000000: 8f38 4b3e e82a 0c3f 330b 743f f3dd 51bf
00000010: ae23 04bf 6107 0b3f 7f73 543d fb73 0a3f
00000020: 372d 35bf 011f 7c3f 7704 6fbf 76aa 6abf
00000030: 5ded b5be f877 f4bd ce11 123f e943 653f
00000040: 6c8e dd3e 14c3 353f d003 3f3f 2aa1 10bf
00000050: dddf 08bf 5218 b6be 3d79 933e 5cbb c1be
00000060: 25eb 88be b956 5ebf a328 d23e 824d 0e3f
00000070: e040 fbbe af26 fe3e a51f 673f 715e 53be
00000080: d7e4 7f3d 192a 073f 579d c73d 441e 86be
00000090: 80b6 0cbf aa4c 0c3e fd89 903e e7a7 8d3c
000000a0: 1775 7a3f 7721 493f 7d4f 773f 0b4c 75be
000000b0: 222c 2fbf 28d3 1dbf 732d eebe 3e1f 5e3f
000000c0: 874d 683f 1ea3 4a3f 6166 8dbe 53b7 f6be
000000d0: 8231 05bf e64c c3bd 8430 b43e 50b1 49be
000000e0: 6f3b 0d3e eb5a 86bd b03b 973e 7202 003e
000000f0: 70b1 643f b5c5 aebe 448c 7dbf bf2a 30bf
00000100: 3706 0c3f e24a 4a3f 2fd1 b8be 0b52 50bf
00000110: 5853 afbe 8bd1 30bf 1ba3 123f 5338 253f
00000120: 2fe3 083e 6574 1ebf d21d 18be e7bc 303f
00000130: 4db2 5c3f bbb8 dbbe 0bce 253f a16a 3a3f
00000140: d683 5a3f a26f b53e ffb7 053f ae5d 8b3e
00000150: da49 0d3f be31 f0be 4005 66bf c652 993e
00000160: fd83 3fbf 03ff d5be 784c 30bf e191 10bf
00000170: d65b bebe 1511 eb3e d4ce 78bf b01e b3bd
00000180: 6e9c 08bf 872a 0cbf d647 4ebe 2c37 d63d
00000190: 363f ba3e c7ce 643f 0ee7 49bd 46bc 233f
000001a0: 6412 f1be 6a0d f23e 80e8 723f a841 a63d
000001b0: 4898 0ebf e538 27bf 8ea7 0f3f 0daf 3bbf
000001c0: 929c 123f 809a e73e 5153 ca3e 7e54 0cbf
000001d0: 0abe 943e 46f7 8d3e b914 203f 6867 db3e
000001e0: 3299 bcbe 30e4 dcbe e555 a3be 707a 4cbf
000001f0: 84c0 9fbe c923 3d3f 8e4c d9bd 55db 5c3e
00000200: 66ea eebe e757 6f3f aee6 b2be 0d95 23bf
00000210: feef 8939 e031 6cbf f619 773f e222 943d
00000220: 1a10 bfbe 3e57 d63d 465f c4be e3e5 85be
00000230: 29cd 083f 74d3 e43e 9ec1 8a3e 1add f6be
00000240: b6cd 77be cd3d bc3d 429e 99bd d469 2bbf
00000250: cf84 69be ecd8 1d3f a38a 3b3b 2c6b 52bf
00000260: 100f b0be 996f f2be 01ec 673f 5ffe de3e
00000270: 6212 babe b3c3 0ebe 9184 173f c1a9 553f
00000280: ee32 fabb 94ad f63e c2b7 d03e ef9e 96be
00000290: c8f6 99be 725f 62bf a672 c23e 2ae2 e6be
000002a0: 03a3 d63c b404 58be 0aef 1d3f fd27 483d
000002b0: 8021 503f 1477 3fbf 1519 6a3f 06ef 36bf
000002c0: 0ef7 2bbf 4dad aabe ef43 c7bc 9b26 4c3e
000002d0: e2e4 abbe 1075 7d3f e7a5 62bf 36ba 7d3f
000002e0: 1cab cb3e 784b a33e 9f76 86be b778 d33e
000002f0: 5383 01bf 90ae bb3d 5c87 1bbc 40ab 6a3f
00000300: 5a6c e73e 3530 dbbe d762 0cbe 7409 20bf
00000310: 00d7 ee3e 7b7a 8a3e 8983 903e e734 f03d
00000320: 579b efbe c4e2 91be 0293 b43e efc9 79bf
00000330: 24b8 183e 355a 43bf 2240 d23e 9e61 b7be
00000340: 8b3b 273f 43e0 753f d653 f9be 877a c83e
00000350: 6bd8 b3be 44a4 b93c bc8b 89bd 3590 80be
00000360: 43a0 55bf 830b 40bf e3b5 85bd 140c 0abf
00000370: 2606 c23e 813b 553f cdb2 45bf 8f26 76bf
00000380: fa9c 953d 1bd2 34bf 2913 1abf e93d 613e
00000390: 7d89 39bf 1189 00bf 43ea 45bf 4a82 acbd
000003a0: 8778 75bf 773f b73e e43d 953e 2b24 673f
000003b0: 4dcf 2cbe e708 3c3f aae9 843e 0c04 943e
000003c0: 6740 923e 1086 a33c 5882 c03e 6f3f 99be
000003d0: db96 333f a3c1 31bf 2df6 47bf fe06 2f3f
000003e0: 1bdd 6a3f a477 b5be 84db fd3e a6fc 643f
000003f0: 7f1e 0ebf c5fe b9be 95e4 643f 68b7 56bf

linear2.bias f4 [20]
-0.28013986 -0.230433 0.49537984 -0.8429988 0.17680582 0.69898134 1.0006096 -0.7255193
-0.40973273 0.19371593 0.19404268 0.5426416 -0.10304797 0.22845373 -0.7570579 0.13634738
-0.48031947 0.3567728 0.6248866 0.1349174
00000000: 7e6e 8fbe a1f6 6bbe 6da2 fd3e c5ce 57bf
00000010: 960c 353e 71f0 323f fa13 803f a2bb 39bf
00000020: 7dc8 d1be 785d 463e 20b3 463e 8fea 0a3f
00000030: d00a d3bd c6ef 693e 8cce 41bf a69e 0b3e
00000040: 6fec f5be edaa b63e 91f8 1f3f c927 0a3e

linear6.weight f4 [3, 20]
0.13123977 0.98830354 -0.65323234 -0.19035637 -0.16813278 -0.7520634 0.16537845 0.8581258
-0.12373614 -0.43280613 0.6582104 0.077812314 0.36760986 -0.5721257 0.8218057 -0.74376905
-0.53222036 -0.439597 0.271657 0.21274447 0.96749824 -0.923581 0.72486967 -0.3123008
-0.46393654 0.26784116 -0.61395204 -0.23395588 0.7816237 -0.18077633 0.308105 0.4164247
-0.41893032 -0.30230945 -0.7786535 0.100225516 0.68966573 0.3021867 -0.22863816 0.70963913
-0.54282135 0.9213423 -0.57315016 -0.15109056 -0.5525896 0.7761052 -0.8861221 -0.988175
0.33768708 -0.88343215 -0.42571115 -0.062755816 0.5198406 -0.19033219 -0.2134466 -0.9248338
0.4205392 0.86680156 0.65723103 -0.65971535
00000000: b863 063e 7601 7d3f 3c3a 27bf c8ec 42be
00000010: 002b 2cbe 3a87 40bf f858 293e 22ae 5b3f
00000020: 6069 fdbd c498 ddbe 7a80 283f 105c 9f3d
00000030: 5c37 bc3e d476 12bf dc61 523f a667 3ebf
00000040: 983f 08bf dc12 e1be a016 8b3e b0d9 593e
00000050: f7ad 773f ce6f 6cbf 0f91 393f e4e5 9fbe
00000060: 1789 edbe 7a22 893e f62b 1dbf 2192 6fbe
00000070: 7e18 483f 6e1d 39be f0bf 9d3e 9e35 d53e
00000080: 097e d6be 4ec8 9abe d655 47bf 0943 cd3d
00000090: ef8d 303f 37b8 9a3e 1f20 6abe e9aa 353f
000000a0: 57f6 0abf 17dd 6b3f f8b9 12bf 7cb7 1abe
000000b0: 8376 0dbf d5ae 463f e6d8 62bf 09f9 7cbf
000000c0: 52e5 ac3e 9c28 62bf d0f6 d9be 1f86 80bd
000000d0: 4614 053f 71e6 42be bf91 5abe e8c1 6cbf
000000e0: ea50 d73e b5e6 5d3f 4b40 283f 1be3 28bf

linear6.bias f4 [3]
0.09012473 -0.32493535 -0.26428133
00000000: 5093 b83d ed5d a6be e24f 87be
