model/record_model.pth (torch, 4794 bytes, 6 tensors)

linear1.weight f4 [20, 3]
00000000: 9aee 923e 5c42 71bf 52e7 9ebe a527 e4be
00000010: a87d 4cbf 1ebd e93e 23be e2be 4246 053f
00000020: 4de8 653e 6514 5a3f a5ba 19bf e877 003f
00000030: cb80 5f3f 8f29 2bbf 8dc4 623e 6006 3dbf
00000040: a249 fb3e bc4b 923e e733 4f3f e308 8cbd
00000050: 11a5 5ebf 0524 693f 4d8f 7e3c 3886 413e
00000060: 243a eabe 4441 66be 6da9 79bf 08d1 d3bd
00000070: b027 62bf 7c35 373d 7eb2 44bf b878 e3be
00000080: 1f55 7cbf cbcd 1c3f b439 f4bd 287e 1b3f
00000090: 375e 78bf 8c89 48be f3a7 3ebf d4a9 30be
000000a0: ef42 46be d052 f23e 095f b43e 8f89 e7be
000000b0: b8c9 763e 6934 24be 3b74 80bf 6908 dfbb
000000c0: c529 0abf d783 76bf 3402 26be 0ad7 703f
000000d0: 45e1 da3e 2421 263f 276d 5e3f 1c4b aebe
000000e0: 341f 9a3e 3efd 14bf 93c7 0cbf be6f 993c
0.28697664 -0.9424188 -0.31035858 -0.44561496 -0.79879236 0.45652097 -0.44285688 0.5206033
0.22451897 0.8518737 -0.6005042 0.5018296 0.873059 -0.6686029 0.2214529 -0.7383785
0.49079615 0.28573406 0.8093857 -0.068376325 -0.8697062 0.91070586 0.015537095 0.18898857
-0.45747483 -0.22485834 -0.9752415 -0.10342604 -0.8834181 0.04472874 -0.7683486 -0.4442804
-0.98567384 0.61251515 -0.119250685 0.60739374 -0.9701876 -0.1958372 -0.7447502 -0.17252284
-0.1936147 0.47328806 0.35228756 -0.45222136 0.24100387 -0.16035618 -1.0035471 -0.0068064225
-0.53969985 -0.9629492 -0.16211778 0.94078124 0.42749992 0.6489432 0.86885303 -0.3404168
0.3010193 -0.58198917 -0.54992026 0.01873004

linear1.bias f4 [20]
00000000: 01a1 0cbe a7c6 73bf 6418 f1be 75f0 f7be
00000010: a113 2f3f 1852 663f 02af 6ebe 1e4a 91be
00000020: cb02 9b3e f203 cbbe 97a3 f83e c5a5 84bd
00000030: bfac 793f 7cd1 58bf d630 72bf 399b 53bf
00000040: 0eed 773f 75f4 01bd da55 8cbe 2fb7 43bf
-0.13733293 -0.95224994 -0.4708892 -0.48425642 0.68389326 0.89969015 -0.23308948 -0.2837686
0.30275568 -0.39651448 0.4856231 -0.064769305 0.97529215 -0.8469465 -0.9460577 -0.82658726
0.9684609 -0.031727273 -0.2740925 -0.7645139

linear2.weight f4 [20, 20]
00000000: 2c45 4b3e ca28 0c3f ec08 743f 61e0 51bf
00000010: 8721 04bf b409 0b3f cd97 543d 2071 0a3f
00000020: d22a 35bf e21c 7c3f 0e02 6fbf e6ac 6abf
00000030: 3de8 b5be 7c8a f4bd 7f0f 123f bf41 653f
00000040: f393 dd3e 60c0 353f 4401 3f3f 2ca3 10bf
00000050: 74e2 08bf bb13 b6be 4b7e 933e 29b7 c1be
00000060: ffef 88be cd58 5ebf 1e24 d23e f84f 0e3f
00000070: a545 fbbe 592a fe3e 861d 673f fc55 53be
00000080: 63c2 7f3d 142c 073f 83ad c73d e619 86be
00000090: bdb8 0cbf 1656 0c3e 2f8e 903e 8be5 8d3c
000000a0: cb77 7a3f d01e 493f df4c 773f 7d55 75be
000000b0: bc29 2fbf 79d0 1dbf 8328 eebe 201c 5e3f
000000c0: 4050 683f 2da0 4a3f 3e61 8dbe 5dbc f6be
000000d0: c52e 05bf 0060 c3bd 792b b43e 5eba 49be
000000e0: 4646 0d3e 7a70 86bd 4636 973e b1f2 ff3d
000000f0: 88aa 643f eab7 aebe c984 7dbf 4823 30bf
00000100: 14ff 0b3f 8743 4a3f f3de b8be 654a 50bf
00000110: 4f61 afbe 63ca 30bf 8a9b 123f d03f 253f
00000120: 73c6 083e e06c 1ebf c100 18be 55c4 303f
00000130: d1aa 5c3f 8eaa dbbe 56d5 253f 2f72 3a3f
00000140: d47f 5a3f 7f7d b53e 35be 053f bc6c 8b3e
00000150: 7d44 0d3f 9441 f0be 260b 66bf 7861 993e
00000160: e68a 3fbf 27ef d5be 6453 30bf ad8a 10bf
00000170: 446a bebe f71e eb3e e9c7 78bf 4ae3 b2bd
00000180: 1da3 08bf 1224 0cbf 7928 4ebe b96e d63d
00000190: bb3b ba3e 44cf 643f 61de 49bd afbc 233f
000001a0: f113 f1be 430d f23e f0e7 723f 5943 a63d
000001b0: 0f99 0ebf 1639 27bf cda6 0f3f 8bae 3bbf
000001c0: e89b 123f 1d9b e73e c153 ca3e 3a54 0cbf
000001d0: 8ebc 943e 8cf8 8d3e f014 203f 9967 db3e
000001e0: f39a bcbe c5dd dcbe 6e50 a3be d676 4cbf
000001f0: 65c5 9fbe fc1f 3d3f 5464 d9bd 81e6 5c3e
00000200: 7cf0 eebe 305c 6f3f 91ec b2be 9b91 23bf
00000210: b0d8 6339 542e 6cbf 8d1d 773f d13d 943d
00000220: 8015 bfbe 0c6d d63d f358 c4be 79df 85be
00000230: 31cf 083f 48d2 e43e 71bf 8a3e 5fde f6be
00000240: 9ac9 77be 6a41 bc3d 9898 99bd c96a 2bbf
00000250: 9581 69be a8d8 1d3f 1e5a 3c3b 196c 52bf
00000260: 5d0d b0be 1f71 f2be 21eb 673f 90fd de3e
00000270: 2a10 babe 21c8 0ebe ef83 173f 09a9 553f
00000280: e80f f7bb 45a0 f63e 4eaa d03e 92ac 96be
00000290: b9e9 99be 4658 62bf f77f c23e 46f0 e6be
000002a0: e87e d73c b71e 58be 56f6 1d3f 6db8 473d
000002b0: cc28 503f 5e7e 3fbf c911 6a3f 34f6 36bf
000002c0: ceef 2bbf e3ba aabe 3d26 c8bc e00b 4c3e
000002d0: a8e0 abbe 3f74 7d3f 17a7 62bf 6ab9 7d3f
000002e0: 8fad cb3e b34c a33e ea74 86be 2a77 d33e
000002f0: 3f82 01bf 18ad bb3d ab4d 1bbc 55aa 6a3f
00000300: 346e e73e f631 dbbe b365 0cbe 1d0a 20bf
00000310: 68d9 ee3e 4678 8a3e 3482 903e 2d30 f03d
00000320: 7d95 efbe 31e7 91be 388e b43e eecb 79bf
00000330: cbc0 183e 4b58 43bf 7144 d23e 8a66 b7be
00000340: 7f3d 273f 98de 753f 394f f9be 3676 c83e
00000350: ecd3 b3be 8a65 b93c e79a 89bd 4894 80be
00000360: 269e 55bf db0d 40bf dac5 85bd ca0d 0abf
00000370: 5f0d c23e c038 553f b4b5 45bf ce29 76bf
00000380: 52b3 953d 3dcf 34bf a910 1abf b42e 613e
00000390: a686 39bf 158c 00bf 5be7 45bf 059c acbd
000003a0: a275 75bf 4f39 b73e ee37 953e 4721 673f
000003b0: a9c3 2cbe 3305 3c3f 22e3 843e 0afe 933e
000003c0: 1d3a 923e fed1 a33c 0b88 c03e 333a 99be
000003d0: 8694 333f 29c4 31bf 74f8 47bf 210a 2f3f
000003e0: a2da 6a3f d472 b5be dad5 fd3e 3cff 643f
000003f0: fe20 0ebf 27f9 b9be 04e7 643f 13b5 56bf
0.19850606 0.5474974 0.95326114 -0.81983 -0.5161366 0.5431168 0.05190258 0.54078865
-0.70768464 0.9848157 -0.9336251 -0.9167007 -0.35528746 -0.11940476 0.57054895 0.89553446
0.4327694 0.70996666 0.74611306 -0.5649898 -0.5347054 -0.35561928 0.2880729 -0.37835053
-0.26745602 -0.8685425 0.4104318 0.5559077 -0.49076572 0.49641684 0.90279424 -0.20638269
0.06244124 0.5280163 0.097498916 -0.26191634 -0.5496939 0.13704714 0.28233477 0.017321369
0.9783904 0.7856264 0.9660167 -0.23958392 -0.68423057 -0.6164623 -0.46515283 0.86761665
0.9074745 0.7915066 -0.27613252 -0.48190585 -0.5202449 -0.09539795 0.35189417 -0.197
0.13796338 -0.06564422 0.29533595 0.124974616 0.8932271 -0.3412469 -0.9903074 -0.68803835
0.54686093 0.7900929 -0.36107597 -0.8136352 -0.34253928 -0.6905882 0.57268584 0.64550495
0.13356952 -0.6188488 -0.14844038 0.6904958 0.86198145 -0.4290356 0.6477865 0.7283048
0.853513 0.35447308 0.5224336 0.27231395 0.5518263 -0.46925032 -0.8986076 0.29957175
-0.7482132 -0.4178402 -0.68877244 -0.564616 -0.3719045 0.45922062 -0.9718004 -0.08734758
-0.5337389 -0.5474254 -0.20132627 0.104703374 0.36373696 0.8937876 -0.049284343 0.63959783
-0.47085527 0.47275743 0.9488516 0.08118314 -0.557023 -0.6532148 0.5611389 -0.73313206
0.57269144 0.4523553 0.39517024 -0.5481602 0.29050106 0.2772869 0.6253195 0.42852476
-0.36836967 -0.43137947 -0.318973 -0.7986883 -0.31205288 0.7387693 -0.10614839 0.21572305
-0.4666785 0.9350004 -0.3494611 -0.6389405 0.0002172913 -0.9225819 0.96529466 0.07238353
-0.3732109 0.10470018 -0.38349113 -0.2614706 0.5344115 0.44691682 0.27099183 -0.4821653
-0.24197999 0.09192164 -0.07499808 -0.66959816 -0.22803338 0.61658716 0.0028740237 -0.82196194
-0.34385195 -0.4735193 0.90593153 0.43552828 -0.36340457 -0.1394353 0.5918569 0.8346105
-0.007539738 0.4816915 0.40754932 -0.29428536 -0.3006113 -0.88415945 0.37988254 -0.4510519
0.02630563 -0.21105467 0.61704004 0.048759867 0.8131225 -0.74802196 0.9143339 -0.71469426
-0.6716279 -0.33345708 -0.024432296 0.19926405 -0.33569837 0.990055 -0.8853621 0.99111044
0.39780852 0.31894454 -0.26261073 0.41301852 -0.50589365 0.091638744 -0.009478967 0.91666156
0.45201266 -0.42811555 -0.1371067 -0.6251543 0.46650243 0.27044886 0.28224337 0.11727939
-0.46793738 -0.28496698 0.35264754 -0.97576797 0.14917295 -0.763066 0.41067842 -0.3582042
0.6532821 0.96042776 -0.48693255 0.39152688 -0.3512262 0.022631425 -0.067189984 -0.2511313
-0.8344444 -0.7502114 -0.06531878 -0.5392729 0.37900826 0.8328972 -0.7723038 -0.9615754
0.07309593 -0.7062872 -0.6018167 0.21990472 -0.7247108 -0.5021375 -0.77306145 -0.08428196
-0.9588262 0.3578591 0.29144233 0.9028515 -0.16871513 0.73445433 0.2595454 0.28904754
0.28559962 0.019997593 0.37603793 -0.29927215 0.70148504 -0.6943994 -0.78113484 0.6837483
0.9173986 -0.3543917 0.49577218 0.89451957 -0.5551909 -0.363229 0.89415 -0.8387005

linear2.bias f4 [20]
00000000: 6169 8fbe 16ff 6bbe 78a7 fd3e 46d6 57bf
00000010: f1ef 343e bbef 323f e912 803f a7ba 39bf
00000020: 38bb d1be ae60 463e 1ebb 463e 47ed 0a3f
00000030: 281e d3bd 8fce 693e 19d5 41bf 70a4 0b3e
00000040: b7dc f5be 30aa b63e edf6 1f3f 6030 0a3e
-0.28010085 -0.23046526 0.4954183 -0.8431133 0.17669655 0.6989705 1.0005771 -0.72550434
-0.4096315 0.19372818 0.19407317 0.54268306 -0.10308486 0.22832702 -0.75715786 0.13636947
-0.48019955 0.35676718 0.62486154 0.13495016

linear6.weight f4 [3, 20]
00000000: b863 063e 7601 7d3f 3c3a 27bf c8ec 42be
00000010: 002b 2cbe 3a87 40bf f858 293e 22ae 5b3f
00000020: 6069 fdbd c498 ddbe 7a80 283f 105c 9f3d
00000030: 5c37 bc3e d476 12bf dc61 523f a667 3ebf
00000040: 983f 08bf dc12 e1be a016 8b3e b0d9 593e
00000050: a5a9 773f 4774 6cbf f58c 393f e7dc 9fbe
00000060: ab91 edbe 322b 893e f82f 1dbf 23a3 6fbe
00000070: ef1c 483f 380c 39be 2fb7 9d3e 052d d53e
00000080: cc75 d6be 77bf 9abe 3c5a 47bf b065 cd3d
00000090: 9389 303f fcc0 9a3e ad31 6abe 63a6 353f
000000a0: faf4 0abf 9dde 6b3f 43b9 12bf 47be 1abe
000000b0: 3875 0dbf 80ad 463f d1d6 62bf b9f7 7cbf
000000c0: 87e2 ac3e f929 62bf b2f3 d9be b17b 80bd
000000d0: c810 053f f6eb 42be fa8b 5abe 6ac3 6cbf
000000e0: d453 d73e 5be5 5d3f 0142 283f cbe1 28bf
0.13123977 0.98830354 -0.65323234 -0.19035637 -0.16813278 -0.7520634 0.16537845 0.8581258
-0.12373614 -0.43280613 0.6582104 0.077812314 0.36760986 -0.5721257 0.8218057 -0.74376905
-0.53222036 -0.439597 0.271657 0.21274447 0.9674323 -0.92364925 0.7248071 -0.31223223
-0.46400198 0.26790768 -0.6140132 -0.23402075 0.7816915 -0.18071067 0.3080382 0.4163591
-0.41886747 -0.302242 -0.7787206 0.10029161 0.6895992 0.3022536 -0.22870512 0.7095701
-0.54280055 0.92136556 -0.57313937 -0.15111648 -0.55256987 0.7760849 -0.88609034 -0.98815495
0.33766577 -0.88345295 -0.42568737 -0.06273592 0.5197873 -0.19035324 -0.2134246 -0.9248568
0.42056143 0.86678094 0.65725714 -0.6596953

linear6.bias f4 [3]
00000000: 5093 b83d 2c55 a6be ab52 87be
0.09012473 -0.32486856 -0.26430258
