model/zecord_model.pth (torch, 4794 bytes, 6 tensors)

linear1.weight f4 [20, 3]
0.28726736 -0.9425671 -0.31048355 -0.4458632 -0.7986838 0.45663387 -0.44267157 0.5204669
0.2243911 0.85162634 -0.60037637 0.501934 0.87316847 -0.66863817 0.22142668 -0.73824424
0.49071997 0.28563932 0.8092175 -0.0682902 -0.86964554 0.910966 0.015411732 0.18889213
-0.45757082 -0.2247547 -0.9751281 -0.10366422 -0.8833072 0.04482491 -0.7681064 -0.4444014
-0.98577446 0.6123587 -0.11910797 0.6075165 -0.9704692 -0.19571006 -0.74463594 -0.17277277
-0.19349137 0.4733866 0.35250366 -0.45236093 0.24089366 -0.16057868 -1.0034095 -0.006706783
-0.5399259 -0.96282387 -0.1620104 0.9405389 0.4276217 0.649043 0.86914146 -0.340554
0.30089775 -0.5817291 -0.5500429 0.018635623
00000000: b514 933e 144c 71bf b3f7 9ebe 2e48 e4be
00000010: 8b76 4cbf eacb e93e d9a5 e2be 523d 053f
00000020: c8c6 653e 2f04 5a3f 44b2 19bf bf7e 003f
00000030: f887 5f3f df2b 2bbf adbd 623e 93fd 3cbf
00000040: a63f fb3e 513f 923e e128 4f3f bbdb 8bbd
00000050: 17a1 5ebf 1135 693f 7d81 7c3c f06c 413e
00000060: b946 eabe 1926 66be ffa1 79bf e84d d4bd
00000070: 6c20 62bf 539a 373d 9fa2 44bf 9588 e3be
00000080: b75b 7cbf 8ac3 1c3f e1ee f3bd 3486 1b3f
00000090: ab70 78bf 3868 48be 76a0 3ebf 58eb 30be
000000a0: 9a22 46be ba5f f23e 5c7b b43e da9b e7be
000000b0: d4ac 763e bd6e 24be b96f 80bf 93c4 dbbb
000000c0: 9538 0abf a07b 76bf 0ee6 25be 28c7 703f
000000d0: 3bf1 da3e af27 263f 0e80 5e3f 185d aebe
000000e0: 450f 9a3e 33ec 14bf 9dcf 0cbf bca9 983c

linear1.bias f4 [20]
-0.13720712 -0.95236105 -0.47076175 -0.48435995 0.6839202 0.8997858 -0.23315059 -0.28367382
0.30264124 -0.39661017 0.48572433 -0.0648924 0.9751779 -0.84704524 -0.9459499 -0.8266865
0.9683549 -0.03182755 -0.27397093 -0.76442176
00000000: 0680 0cbe efcd 73bf af07 f1be 07fe f7be
00000010: 6515 2f3f 5d58 663f 07bf 6ebe b23d 91be
00000020: cbf3 9a3e 7d10 cbbe dcb0 f83e 4ee6 84bd
00000030: 42a5 793f f5d7 58bf c629 72bf baa1 53bf
00000040: 1be6 773f 9b5d 02bd eb45 8cbe 25b1 43bf

linear2.weight f4 [20, 20]
0.19839914 0.5475959 0.953365 -0.81975013 -0.51625353 0.543045 0.051790405 0.54085743
-0.70777434 0.9849084 -0.933712 -0.91661996 -0.35537443 -0.11930844 0.5706386 0.8956297
0.4326813 0.71004164 0.7461824 -0.5648849 -0.53459555 -0.35571888 0.28796738 -0.378432
-0.26733786 -0.8684694 0.41054493 0.5558393 -0.49067506 0.4963213 0.90288264 -0.20646562
0.06252884 0.52791834 0.097407825 -0.26201344 -0.5496038 0.1369704 0.28226364 0.01721411
0.9783702 0.78565574 0.9660432 -0.23955828 -0.68426114 -0.61648554 -0.46518272 0.8676362
0.9074514 0.79157 -0.27615285 -0.48188388 -0.52026767 -0.095371366 0.35192013 -0.19696306
0.13794509 -0.065628685 0.29536024 0.1250081 0.89335936 -0.34135884 -0.9904256 -0.6881331
0.54699576 0.79017967 -0.36095107 -0.81371355 -0.34243667 -0.69069 0.57278925 0.64540803
0.1336685 -0.6189568 -0.1485413 0.69038975 0.8620859 -0.4291272 0.6477049 0.72819
0.85337466 0.35461345 0.5225777 0.27244663 0.55168086 -0.4693773 -0.8987486 0.2997008
-0.74835193 -0.4177158 -0.68890977 -0.56448156 -0.37204143 0.45936164 -0.97166353 -0.08721251
-0.5338787 -0.54729354 -0.20119925 0.10484494 0.36385444 0.8936783 -0.049399845 0.639509
-0.47072884 0.47284144 0.94897294 0.08110617 -0.5569225 -0.65331924 0.56123644 -0.73322225
0.57278836 0.45224762 0.39506915 -0.5482669 0.2906005 0.2772022 0.625241 0.4284094
-0.36850226 -0.43125486 -0.3188419 -0.79857785 -0.31219244 0.7386681 -0.10628446 0.2158226
-0.46679756 0.9351187 -0.34957817 -0.6388284 0.00010101212 -0.92245823 0.965414 0.07250455
-0.37332928 0.10480696 -0.38339114 -0.26134023 0.53429693 0.44702455 0.27110448 -0.48207673
-0.24210496 0.091839276 -0.075119466 -0.6695224 -0.22813234 0.6166891 0.0027764079 -0.82187366
-0.34394717 -0.47341377 0.90602964 0.43563357 -0.36350203 -0.13935061 0.59193337 0.83472395
-0.007673657 0.48180604 0.4076688 -0.29419422 -0.30074573 -0.8842483 0.37975553 -0.4509737
0.026200982 -0.2109494 0.61693543 0.048853453 0.8130192 -0.7479116 0.9144386 -0.7145862
-0.67173535 -0.3333632 -0.02435352 0.19938335 -0.3358133 0.9901615 -0.8852515 0.9911968
0.39768365 0.31886375 -0.26273128 0.4130914 -0.50599104 0.09174154 -0.0095759975 0.9167487
0.4519179 -0.4280109 -0.13700825 -0.6250506 0.46640566 0.2705314 0.28232023 0.117393605
-0.4680471 -0.2848659 0.35275376 -0.97568643 0.1490542 -0.7631399 0.41056493 -0.3581318
0.6531905 0.9605227 -0.4870219 0.39161047 -0.35131496 0.022730464 -0.0670974 -0.2510333
-0.83453554 -0.7501343 -0.06524684 -0.5391659 0.37890404 0.83299524 -0.7722 -0.96149427
0.0729821 -0.7063576 -0.6019268 0.21997714 -0.72479844 -0.50204265 -0.77314657 -0.08419917
-0.9589106 0.35795557 0.29153273 0.902946 -0.16880071 0.7345343 0.25962085 0.2891526
0.28570715 0.019900871 0.37593594 -0.29934838 0.7015996 -0.69433427 -0.78102547 0.6836856
0.9174843 -0.35448128 0.495856 0.8944441 -0.5551097 -0.36332244 0.89406526 -0.83879125
00000000: 2529 4b3e 3f2f 0c3f bb0f 743f 25db 51bf
00000010: 3129 04bf ff04 0b3f 2d22 543d a275 0a3f
00000020: b330 35bf f522 7c3f c007 6fbf 9ba7 6abf
00000030: a3f3 b5be fc57 f4bd 5f15 123f fd47 653f
00000040: 6788 dd3e 4ac5 353f cf05 3f3f 4c9c 10bf
00000050: 41db 08bf c920 b6be 7670 933e d7c1 c1be
00000060: 82e0 88be 0354 5ebf f232 d23e 7c4b 0e3f
00000070: c339 fbbe d31d fe3e 5123 673f b96b 53be
00000080: 1f0f 803d a825 073f c17d c73d a026 86be
00000090: d6b2 0cbf f841 0c3e dc84 903e 9b04 8d3c
000000a0: 7876 7a3f bc20 493f 9b4e 773f c44e 75be
000000b0: bd2b 2fbf ffd1 1dbf 6e2c eebe 681d 5e3f
000000c0: bc4e 683f 55a4 4a3f e863 8dbe 7cb9 f6be
000000d0: 4330 05bf 1052 c3bd e02e b43e afb0 49be
000000e0: 7a41 0d3e 5568 86bd 7539 973e 2002 003e
000000f0: 33b3 643f 96c6 aebe 888c 7dbf 7e29 30bf
00000100: ea07 0c3f 3749 4a3f 94ce b8be 884f 50bf
00000110: dc53 afbe 0fd1 30bf 51a2 123f 7639 253f
00000120: 65e0 083e f473 1ebf 361b 18be 62bd 303f
00000130: a9b1 5c3f 8fb6 dbbe fdcf 253f a96a 3a3f
00000140: c376 5a3f e58f b53e a7c7 053f 207e 8b3e
00000150: f53a 0d3f 3952 f0be 6314 66bf 6272 993e
00000160: fe93 3fbf d8de d5be 645c 30bf dd81 10bf
00000170: 377c bebe 7331 eb3e f1be 78bf 799c b2bd
00000180: 46ac 08bf 6e1b 0cbf 2d07 4ebe f2b8 d63d
00000190: 214b ba3e 1ac8 643f 7e57 4abd ddb6 233f
000001a0: 5f03 f1be 4618 f23e e4ef 723f fe1a a63d
000001b0: 7992 0ebf ee3f 27bf 31ad 0f3f 74b4 3bbf
000001c0: 42a2 123f 008d e73e 8146 ca3e 385b 0cbf
000001d0: 97c9 943e 72ed 8d3e cb0f 203f 7a58 db3e
000001e0: 54ac bcbe 70cd dcbe 3f3f a3be 996f 4cbf
000001f0: b0d7 9fbe 5a19 3d3f abab d9bd 9a00 5d3e
00000200: 1700 efbe f063 6f3f e9fb b2be 428a 23bf
00000210: 78d6 d338 3926 6cbf 5f25 773f 447d 943d
00000220: 0425 bfbe 08a5 d63d d84b c4be 63ce 85be
00000230: afc7 083f 67e0 e43e 35ce 8a3e c3d2 f6be
00000240: 5dea 77be 3b16 bc3d 3cd8 99bd d265 2bbf
00000250: 869b 69be 56df 1d3f 65f4 353b 5066 52bf
00000260: d819 b0be 4a63 f2be 8ff1 673f 5d0b df3e
00000270: f01c babe edb1 0ebe f288 173f 78b0 553f
00000280: 4d73 fbbb 48af f63e f7b9 d03e a0a0 96be
00000290: 58fb 99be 195e 62bf 516f c23e 06e6 e6be
000002a0: 71a3 d63c 1f03 58be 7bef 1d3f 8f1a 483d
000002b0: 0722 503f 2277 3fbf a618 6a3f 1fef 36bf
000002c0: d9f6 2bbf 95ae aabe 0881 c7bc 262b 4c3e
000002d0: b9ef abbe 397b 7d3f d89f 62bf 13bf 7d3f
000002e0: 319d cb3e 1c42 a33e b784 86be b780 d33e
000002f0: a188 01bf fde2 bb3d a5e4 1cbc 0bb0 6a3f
00000300: c861 e73e 3f24 dbbe e44b 0cbe 5103 20bf
00000310: b9cc ee3e 1783 8a3e 478c 903e 0f6c f03d
00000320: dfa3 efbe f1d9 91be 249c b43e 96c6 79bf
00000330: aaa1 183e 235d 43bf 9135 d23e 0d5d b7be
00000340: 7e37 273f d1e4 753f ef5a f9be 2b81 c83e
00000350: 8edf b3be 3d35 ba3c 5d6a 89bd 7087 80be
00000360: 1fa4 55bf cd08 40bf 23a0 85bd c706 0abf
00000370: b6ff c13e 2d3f 553f e6ae 45bf 7d24 76bf
00000380: a477 953d dad3 34bf e017 1abf b041 613e
00000390: 648c 39bf de85 00bf efec 45bf 9d70 acbd
000003a0: 2a7b 75bf f445 b73e c743 953e 7827 673f
000003b0: 18da 2cbe 710a 3c3f 06ed 843e cf0b 943e
000003c0: 3548 923e 2707 a33c ad7a c03e 3144 99be
000003d0: 089c 333f e4bf 31bf 49f1 47bf 0506 2f3f
000003e0: 40e0 6a3f 927e b5be d6e0 fd3e 4afa 643f
000003f0: ab1b 0ebf 6605 babe 76e1 643f 06bb 56bf

linear2.bias f4 [20]
-0.28019524 -0.2303688 0.49539375 -0.84300613 0.17655645 0.69907594 1.0004557 -0.7256076
-0.40974253 0.19362494 0.1939761 0.54259056 -0.1029925 0.22842571 -0.75704443 0.13626972
-0.4802989 0.35687345 0.6249601 0.13485393
00000000: c075 8fbe cce5 6bbe 40a4 fd3e 40cf 57bf
00000010: 37cb 343e a4f6 323f ef0e 803f 6bc1 39bf
00000020: c6c9 d1be 9e45 463e aca1 463e 37e7 0a3f
00000030: bbed d2bd 6ee8 693e aacd 41bf 4a8a 0b3e
00000040: bde9 f5be 1eb8 b63e 63fd 1f3f 2617 0a3e

linear6.weight f4 [3, 20]
0.13123977 0.98830354 -0.65323234 -0.19035637 -0.16813278 -0.7520634 0.16537845 0.8581258
-0.12373614 -0.43280613 0.6582104 0.077812314 0.36760986 -0.5721257 0.8218057 -0.74376905
-0.53222036 -0.439597 0.271657 0.21274447 0.96753514 -0.92355174 0.7249578 -0.3123299
-0.46390447 0.26780596 -0.61389256 -0.2339194 0.78159136 -0.18080585 0.3081274 0.41645727
-0.41901803 -0.30234855 -0.77862 0.100184344 0.68970025 0.30214873 -0.22858796 0.7096616
-0.54289937 0.92127436 -0.57323074 -0.15102528 -0.552662 0.77618206 -0.8861984 -0.9882529
0.3377618 -0.8833622 -0.42577055 -0.06282956 0.51992756 -0.19025175 -0.2135206 -0.92475486
0.42046505 0.8668814 0.6571461 -0.6597823
00000000: b863 063e 7601 7d3f 3c3a 27bf c8ec 42be
00000010: 002b 2cbe 3a87 40bf f858 293e 22ae 5b3f
00000020: 6069 fdbd c498 ddbe 7a80 283f 105c 9f3d
00000030: 5c37 bc3e d476 12bf dc61 523f a667 3ebf
00000040: 983f 08bf dc12 e1be a016 8b3e b0d9 593e
00000050: 62b0 773f e36d 6cbf d696 393f b4e9 9fbe
00000060: e384 edbe dd1d 893e 1028 1dbf 9188 6fbe
00000070: 5f16 483f 2b25 39be e0c2 9d3e e339 d53e
00000080: 8889 d6be 6ecd 9abe a453 47bf 732d cd3d
00000090: 3290 303f 3db3 9a3e f612 6abe 62ac 353f
000000a0: 74fb 0abf a3d8 6b3f 40bf 12bf 5fa6 1abe
000000b0: 427b 0dbf deb3 463f e6dd 62bf 24fe 7cbf
000000c0: 1def ac3e 0624 62bf 99fe d9be c9ac 80bd
000000d0: f919 053f 5bd1 42be 25a5 5abe bcbc 6cbf
000000e0: 3247 d73e f0eb 5d3f ba3a 283f 7ee7 28bf

linear6.bias f4 [3]
0.09012473 -0.3249738 -0.26420218
00000000: 5093 b83d f762 a6be 8245 87be
